WeiboSentiment_MachineLearning/model/bert_model.pth (torch, 4778 bytes, 1 tensors)

fc.weight f4 [1, 768]
00000000: b3cc 84bb d812 0bbe 8dc4 533d c498 a3bd
00000010: 8feb 603a 80e4 a5bc e3f9 83bb be38 0fbb
00000020: 9ff8 2d3c 48d4 5d3c 5b0a a03d 6ca6 78bd
00000030: b11c 92bd 269f 8ebd b672 83bb 86e2 aabc
00000040: 0c9c 713b d74b 913c 0c2e 58bc 86b1 253a
00000050: 90c4 fabd 2a1d ed3d d982 85bc 4c88 713d
00000060: f0f9 b7bc deed 033d 61ef 1dbc c585 1ebe
00000070: 7985 1ebc aec9 613d ffe7 433d 7a94 b93c
00000080: 20bd debc 7ce3 903d 9ca6 01be 77b0 36be
00000090: c885 babc 2723 113e 18e7 e23c 2020 373d
000000a0: a27e 95bd 737d be3b 9ebe de3c 4677 f73b
000000b0: 35f6 25bd be62 0d3d 12ec cf3c 0d89 f0bd
000000c0: 5b67 cebd a9de aa3d 99b1 943d a758 09bc
000000d0: 07e8 093d 2d28 20be 7a17 f0bc 9044 4b3d
000000e0: f2d1 dd3d 09a6 283d aca4 fe3d b8d1 93bd
000000f0: e8d2 373e ac74 89bd e469 a0bc 115c 5f3d
00000100: 179d 093c 087f 91bd 1e01 77bd 64da c63d
00000110: 6884 333d 174d 82bd f45d d8bc c4b0 dfbc
00000120: 121d aabc d857 04bd f0d7 0a3d 5fe5 7bbd
00000130: 3034 91bd 1294 b8bd 5f91 9e39 c71a a03d
00000140: f815 47bd 00ef 283d e666 2a3d 646d f03c
00000150: a512 2e3d 1b60 d1bd b5a0 ecbb fe9b 103c
00000160: d3c8 6b3d 9b26 40bd 36d2 453e c3ad babc
00000170: 78fc 56bb fa8a 603d 3185 65bd f793 bebd
00000180: 3b95 4a3d 79c4 f53d 3c6e ddbc d4c0 dc39
00000190: eca2 b33c 8bbe 213d 51dd 6cbd f4bc 4bbc
000001a0: 2cf6 5fbd 14f1 2cbc 114e 773d 4a50 123d
000001b0: 6b3d 41bd 7954 aa3b 246e 593d 3f73 763d
000001c0: 68b4 b33b 0394 19bd dde0 89bc e364 f73d
000001d0: a2e5 1e3d cc6a 75bd 6793 a9ba 22be 643d
000001e0: deaa a83d 41bf 3a3c b73a d93c d966 acbd
000001f0: 2ec7 b43d 804c a5bc af07 8abd 93cb 923d
00000200: 635b 153d e1f5 5fbc 28d2 5fbc 122c b83c
00000210: 62ba 293d 1068 9f3d 3bf8 323d e3fe 853d
00000220: 9756 b0bd aded 363d d15f 33bd 8518 b53d
00000230: 27be bdbd 5bdc 973c 34a2 af3a 321c d7bd
00000240: e290 30bc f32f 85bd ed1f 3d3d 3330 85bd
00000250: 00b0 c03d 423e 933b c365 f5bc 2c71 bb3d
00000260: 461d 45ba 2ee5 a13d 74c9 71bb fcfa 19bb
00000270: b431 edbc 1109 973d 8bff ce3c 2ad2 89bd
00000280: 96c3 813d dea1 50bd aa61 6bbd cfe7 7e3d
00000290: d359 7fba 56bb 0d3e 1d37 b7bd 67b5 843d
000002a0: ccfd f63d c643 f03d 912c ae3d 6adc 763a
000002b0: 168f 81bd 1cf2 56bd 5030 b2bc 01c3 d83d
000002c0: 3e7e f2bb b665 10bd 0dcc 6a3d e537 a53d
000002d0: 4b7f 933c 4730 703b 18e5 6ebc 220d a13c
000002e0: e3dd 263d 9cf1 643d e9bb b9bd f764 bbbd
000002f0: 4828 303c 5a61 a7bc d2f7 a0bd 9afc 373c
00000300: 8372 12bd 5ac6 a03d 4bf9 e3bd 8050 6f3d
00000310: 29e8 973c d0e1 1e3d 8903 d03d dc6d 033d
00000320: 3abe 9abc a351 ab3d 76b5 71bd 0a4d 84bd
00000330: 48b6 d5bd fd82 a23d 5a2e ffbc e143 c53b
00000340: 2bd8 d43c 87a3 6dbd 1e37 393d 8042 f93b
00000350: e1e1 a73a 66aa 6f3d 27ca 0a3c a6a7 f63c
00000360: 15ca 77bc 4b66 623c 9e90 3cbc 75c1 1e3d
00000370: 9951 1f3d 7504 9a3d 0abb eabd 62c2 b23d
00000380: 6448 2c3d 9fe6 f9bc 5e78 853b c517 2cbd
00000390: 58cd e6bd 4fe6 103d 70bf 9dbc fe7a a9bc
000003a0: 0683 703d bb3d 153d d435 debc 61f6 8b3d
000003b0: 87af 34bd 9890 c3bc 3512 c9ba d31c 423c
000003c0: ba72 213c dea3 f03d 63fe 3f3d 9672 c3bc
000003d0: c0bb fabd b84e c9bd 4edd 073d 4320 92b8
000003e0: 62af a33c f9aa 933d 7b72 f5bc 4285 8f3d
000003f0: 51cd 1abe 6345 43bd 6431 5abd 8f10 89bd
-0.0040527224 -0.13581407 0.051701117 -0.07988122 0.0008580023 -0.020250559 -0.0040275916 -0.002185389
0.010618358 0.013539381 0.07814475 -0.060705587 -0.07134379 -0.06963949 -0.0040114773 -0.020859968
0.0036866693 0.017736359 -0.013194572 0.00063207035 -0.122445226 0.11577828 -0.016297745 0.058967873
-0.022458047 0.03220927 -0.009639592 -0.15480717 -0.009675377 0.055123977 0.04782867 0.022653807
-0.027189791 0.07074639 -0.12661213 -0.17840753 -0.02276887 0.14173566 0.027698085 0.04470837
-0.07299544 0.0058132946 0.027190503 0.0075520603 -0.040518004 0.034517996 0.025381122 -0.1174489
-0.10078307 0.0834325 0.072604366 -0.008382953 0.033668544 -0.15640326 -0.02930807 0.049625933
0.108310595 0.04117397 0.124337524 -0.07217735 0.17951548 -0.067117065 -0.019581743 0.05453116
0.00839927 -0.071043074 -0.0603038 0.097096235 0.043827444 -0.0636236 -0.026411988 -0.027305968
-0.020765815 -0.032310337 0.03389734 -0.061498042 -0.07090032 -0.09012617 0.00030244418 0.078176074
-0.048604935 0.041243553 0.041602038 0.029349037 0.04249825 -0.10223409 -0.007221306 0.008826254
0.057564568 -0.046911817 0.1931847 -0.022787934 -0.0032804292 0.05482004 -0.056035224 -0.09305566
0.049458724 0.12000365 -0.027030103 0.00042105338 0.021928273 0.039488357 -0.05782825 -0.012435187
-0.054678127 -0.010555524 0.060377184 0.0357211 -0.047177713 0.005198058 0.053083554 0.0601685
0.0054841526 -0.03749467 -0.016830856 0.120797895 0.038793214 -0.059916303 -0.0012937606 0.055845387
0.08235715 0.011398138 0.026517255 -0.08418054 0.08827053 -0.02017808 -0.06739747 0.07167735
0.036464106 -0.013669462 -0.013660945 0.022481952 0.041437514 0.0778352 0.043693762 0.065427564
-0.08610266 0.04466026 -0.04379255 0.08842567 -0.09264784 0.01853769 0.0013399781 -0.10503425
-0.01077673 -0.06503286 0.046173025 -0.06503334 0.09408569 0.0044935057 -0.02995575 0.09152445
-0.00075193157 0.07905041 -0.0036893757 -0.0023495546 -0.028954364 0.07374776 0.025268337 -0.06729539
0.06336133 -0.05093562 -0.057466187 0.06223279 -0.0009740863 0.13840994 -0.08946059 0.06479912
0.12060127 0.11731677 0.08504594 0.00094169995 -0.063261196 -0.052476987 -0.021751553 0.10584069
-0.007400303 -0.03525325 0.057323504 0.08067302 0.018005034 0.003664987 -0.014580987 0.019659583
0.04073895 0.05589448 -0.09069044 -0.09150117 0.010751791 -0.020432163 -0.07859768 0.0112296585
-0.035753738 0.078503326 -0.11131533 0.05842638 0.01854332 0.03878957 0.10156924 0.032087192
-0.018889535 0.0836518 -0.059010945 -0.064600065 -0.10435158 0.0793514 -0.031150032 0.0060200547
0.025981983 -0.05801728 0.04521858 0.0076068044 0.0012808406 0.058512114 0.008471048 0.030109238
-0.015123864 0.013818334 -0.011509089 0.038758714 0.038896177 0.07520381 -0.11461456 0.08728482
0.042061225 -0.030505477 0.004073187 -0.042014856 -0.11269635 0.03537589 -0.019256324 -0.02068853
0.058718704 0.036435824 -0.027125277 0.068341024 -0.04411271 -0.023872659 -0.0015340509 0.011847693
0.009854013 0.11750005 0.04687346 -0.02385835 -0.12242842 -0.098294675 0.033170037 -6.967832e-05
0.01998109 0.07210345 -0.029961815 0.07007839 -0.15117384 -0.047673594 -0.05326976 -0.066926114
